disease_model.pth (torch, 90880 bytes, 4 tensors)

fc.0.weight f4 [128, 131]
0	0x3df3726c	0.118870586
1	0xbc80db70	-0.015729636
2	0x3d634451	0.055485073
3	0x3d3a9179	0.04554889
4	0x3e45b0a3	0.19305663
5	0x3dea059b	0.114268504
6	0xbe1882ab	-0.14893596
7	0xbe82e909	-0.25568417
8	0xbdc7dbd9	-0.097587295
9	0x3e297db5	0.1655186
10	0xbda5f90f	-0.08104145
11	0x3e2ba0ff	0.16760634
12	0x3e602e87	0.21892749
13	0x3e4536d5	0.19259198
14	0x3e83f2be	0.25771135
15	0x3e2aed04	0.16691977
16	0xbdb27eb6	-0.087155744
17	0x3e92e39a	0.2868927
18	0x3d930b2c	0.07179865
19	0x3d1803ad	0.03711288
20	0x3dfade09	0.12249381
21	0xbbef05c0	-0.0072943866
22	0xbd9e4573	-0.0772809
23	0x3d0c6895	0.034279425
24	0x3e33c843	0.17556863
25	0xbe099136	-0.134343
26	0xbd847939	-0.06468434
27	0x3b96cfb0	0.004602395
28	0xbeb21e9f	-0.34788987
29	0xbe1aa741	-0.15102865
30	0x3e123bf5	0.14280684
31	0xbc16d4d1	-0.009206013
32	0xbe037872	-0.12838915
33	0xbe64c173	-0.2233942
34	0x3da9a66e	0.08283697
35	0x3d0aa551	0.033849064
36	0x3df3c512	0.119028226
37	0x3d20abb1	0.039226238
38	0xbe2f9364	-0.17146069
39	0x3e8e8361	0.2783461
40	0xbe73f6bc	-0.2382459
41	0xbe6bf3be	-0.23042199
42	0xbe0af90c	-0.13571566
43	0x3e3de977	0.18546091
44	0x3e36e9a9	0.17862572
45	0x3c92f753	0.017940199
46	0xbbf00cf0	-0.007325761
47	0xbe134efb	-0.14385597
48	0xbd34336d	-0.043994356
49	0x3e234492	0.15944126
50	0xbdeeafb2	-0.11654605
51	0x3e130236	0.14356312
52	0xbd5d1c45	-0.053982038
53	0x3e495dc0	0.19664669
54	0x3e505430	0.20344615
55	0xbebf92bd	-0.3741664
56	0xbdb02872	-0.08601464
57	0x3e8d5666	0.2760498
58	0x3c4dcdc5	0.012561266
59	0x3ddb8c72	0.10720147
60	0xbd1b4301	-0.037905697
61	0x3c6653df	0.014058082
62	0xbda15f46	-0.078795
63	0x3e411966	0.18857345
64	0x3d9c0433	0.076179884
65	0xbe0f7691	-0.14010073
66	0x3e54518c	0.20734233
67	0x3e463817	0.19357334
68	0xbda89eec	-0.08233437
69	0xbe386d03	-0.18010335
70	0x3e0a49e4	0.1350475
71	0xbddc10c1	-0.10745383
72	0xbe4abc2c	-0.19798344
73	0xbdb6f695	-0.089337505
74	0xbd9596d3	-0.07304158
75	0x3e281f55	0.16418202
76	0x3e093694	0.13399726
77	0x3c3d3b7a	0.011549825
78	0x3e41437f	0.18873404
79	0x3e2996c2	0.16561416
80	0xbd6853c2	-0.056720503
81	0xbd97bcbe	-0.074090466
82	0xbccefd2b	-0.025267204
83	0xbd972234	-0.073795706
84	0x3ddb6fbb	0.1071467
85	0xbdc86b35	-0.09786073
86	0xbd2b90b8	-0.04188606
87	0xbe1616e1	-0.14657165
88	0xbd1be76d	-0.0380625
89	0xbda0d328	-0.07852775
90	0xbde20186	-0.11035447
91	0xbe122878	-0.1427325
92	0xbd23d35c	-0.03999649
93	0xbe5f1595	-0.21785577
94	0x3c07296b	0.008249621
95	0xbe068205	-0.13135536
96	0x3d606f18	0.054793447
97	0xbd46cf40	-0.048537493
98	0x3cf0ef3f	0.029410956
99	0xbdfe14c6	-0.12406306
100	0x3e2dcd31	0.16972806
101	0x39a3da26	0.00031252316
102	0xbe3714da	-0.17879048
103	0x3e821642	0.25407606
104	0x3d53de74	0.05172582
105	0xbdb097e0	-0.08622718
106	0xbd4eab1a	-0.050456144
107	0xbe4e9fb6	-0.20178112
108	0x3e9f7bdf	0.31149194
109	0x3e5e1372	0.21687105
110	0xbdcd32c3	-0.10019448
111	0xbe2756eb	-0.1634175
112	0xbd95c7ea	-0.07313521
113	0x3dcd8461	0.10035015
114	0xbdaa9c90	-0.08330643
115	0xbdb04a72	-0.08607949
116	0xbe1c36cd	-0.1525528
117	0xbe478bae	-0.19486877
118	0xbd5ea4d2	-0.054356404
119	0x3e479a5e	0.1949248
120	0x3e6c6df8	0.23088825
121	0xbc7f6e3f	-0.01559025
122	0xbd94fe73	-0.07275095
123	0x3de7bf15	0.11315743
124	0x3e2f519f	0.1712098
125	0xbc97dd46	-0.018538129
126	0xbd9410c9	-0.07229764
127	0xbdf85440	-0.121254444
128	0x3e03e564	0.12880474
129	0x3d01dd37	0.031705108
130	0x3e71a0a2	0.23596433
131	0x3e26122a	0.16217867
132	0x3c877ecc	0.016539954
133	0x3d8d72a3	0.06906631
134	0x3e2e6038	0.17028892
135	0xbe028e3c	-0.1274957
136	0x3dedd1bc	0.11612269
137	0x3de0673d	0.10957191
138	0x3c6d6431	0.0144892195
139	0x3e4e346e	0.20137188
140	0x3e7d0ca2	0.2471185
141	0x3dc51b38	0.09624332
142	0x3e7e005f	0.24804829
143	0x3d988cb6	0.074487135
144	0x3e44ec81	0.19230844
145	0xbc9716b0	-0.018443435
146	0xbd4947fd	-0.04914092
147	0xbcb7f66c	-0.02245637
148	0x3e042350	0.12904096
149	0xbe075e20	-0.132195
150	0x3e13d554	0.14436847
151	0xbda951a4	-0.08267525
152	0x3e38eeb1	0.18059804
153	0xbdf6ce7b	-0.12051102
154	0xbdec6ef8	-0.11544603
155	0x3e8b9b2a	0.27266818
156	0xbe165e08	-0.14684308
157	0xbc827af2	-0.015927766
158	0xbc79a8c0	-0.015237987
159	0x3e014db6	0.126273
160	0xbdce11f5	-0.10062019
161	0x3da9cef9	0.0829143
162	0x3da461d7	0.08026474
163	0x3e7af478	0.2450732
164	0xbdc4f84b	-0.096176706
165	0xbda0e13e	-0.078554615
166	0x3c900134	0.017578699
167	0xbd9b2ab0	-0.07576501
168	0x3c2b470c	0.010453951
169	0x3e897c46	0.26852626
170	0xbe83fd8f	-0.25779387
171	0xbd1655d4	-0.036702946
172	0xbd1f8bc4	-0.03895165
173	0xbd8a60c4	-0.06756738
174	0x3e3da7d8	0.18521059
175	0x3e018462	0.12648156
176	0x3daddc32	0.084892645
177	0x3cd9ccb4	0.026586868
178	0xbdae2d29	-0.08504707
179	0xbe09f635	-0.13472827
180	0x3e4897a3	0.19589095
181	0xbe142331	-0.1446655
182	0x3e7befaa	0.24603143
183	0x3c1b53e9	0.009480455
184	0x3da7e69e	0.081982836
185	0xbdce003b	-0.10058638
186	0x3e8934f9	0.26798227
187	0xbdd61e4a	-0.10454996
188	0xbdb80b6f	-0.08986556
189	0xbc00dc4e	-0.007865025
190	0x3d20f976	0.039300404
191	0x3d143bbb	0.036189776
192	0xbd2fba9a	-0.042902566
193	0x3dd11039	0.10208172
194	0x3def83f2	0.116950884
195	0xbc5b9ab1	-0.0134035805
196	0xbbd745e3	-0.0065696104
197	0x3cdb95d6	0.026804846
198	0x3e435c06	0.19078073
199	0x3e62615b	0.2210745
200	0xbda7f131	-0.082003005
201	0x3db66807	0.089065604
202	0xbe021fd4	-0.12707454
203	0x3e68234e	0.22669718
204	0xbd4d1e91	-0.05007798
205	0x3e4b7b18	0.19871175
206	0xbc81945a	-0.01581781
207	0x3d739924	0.05947222
208	0xbe034e95	-0.12822945
209	0xbc51af57	-0.012798152
210	0x3e92e30a	0.28688842
211	0x3e8fa0a9	0.2805226
212	0xbc659281	-0.01401198
213	0xbd07dc0e	-0.033168845
214	0x3d8fc0cb	0.07019194
215	0x3cf6647f	0.030077217
216	0x3e5535a0	0.20821238
217	0x3e47fce7	0.19530068
218	0x3e303efb	0.17211525
219	0x3d928e74	0.07156077
220	0xbd8def86	-0.06930451
221	0xbdc019c7	-0.09379917
222	0x3cc15c47	0.023603572
223	0xbd84b1eb	-0.06479248
224	0xbe460915	-0.19339402
225	0x3e3bdc39	0.18345727
226	0xbd3a9cf2	-0.04555983
227	0xbe089aa3	-0.13340239
228	0xbd875d37	-0.06609576
229	0xbe3819df	-0.17978619
230	0x3e8f01a7	0.27930948
231	0xbcd41c9b	-0.025892546
232	0xbe0646fe	-0.13113019
233	0x3e3dfada	0.18552724
234	0x3e634ca6	0.22197208
235	0x3e1b4b78	0.15165508
236	0x3e635851	0.22201659
237	0x3e0c6de8	0.13713801
238	0xbe2b3f8d	-0.16723461
239	0x3d984347	0.07434707
240	0x3d5c6012	0.053802557
241	0xbde38418	-0.11109179
242	0xbdc9076f	-0.09815871
243	0xbc6933b0	-0.014233515
244	0xbca1fdfa	-0.019774426
245	0xbd3e7404	-0.04649736
246	0xbcf3bf33	-0.029754257
247	0xbbc70fb2	-0.006074869
248	0xbde929f3	-0.11384954
249	0x3e29c336	0.16578373
250	0x3e2f645e	0.17128131
251	0x3d1d7345	0.038440008
252	0xbdaa15f7	-0.08304971
253	0xbd707ec0	-0.05871463
254	0xbdb89b5c	-0.090140074
255	0xbbcbc0c6	-0.0062180487

fc.0.bias f4 [128]
0	0x3e588818	0.21145666
1	0x3d4457f7	0.047935452
2	0x3e46b252	0.19403961
3	0x3e1ef8bd	0.15524574
4	0x3e23c2e4	0.15992314
5	0x3e5c430a	0.21509948
6	0x3e350d8b	0.17680947
7	0x3e66f93c	0.22556013
8	0x3e2c3070	0.16815352
9	0x3e460511	0.1933787
10	0x3e28761f	0.1645131
11	0x3d7e1509	0.06203178
12	0x3d89c607	0.06727224
13	0x3e1bf785	0.1523114
14	0x3e3e487a	0.18582335
15	0x3e38b5db	0.18038122
16	0x3e22b8fc	0.15890878
17	0x3e11a200	0.14221954
18	0x3e1c33b5	0.152541
19	0x3e2aa7c8	0.16665566
20	0x3e3f9ddd	0.18712564
21	0x3e2d8b2e	0.16947624
22	0x3e884e0e	0.2662205
23	0x3e465952	0.1937001
24	0x3e645887	0.22299396
25	0x3e2ab79f	0.16671608
26	0x3d9d95dd	0.076946
27	0x3ea5e376	0.324001
28	0x3e351189	0.1768247
29	0x3e763ca6	0.24046573
30	0x3e091b13	0.13389234
31	0x3e0040cf	0.12524723
32	0x3e517f9e	0.20458838
33	0x3e357cf3	0.17723446
34	0x3e8a60e5	0.2702705
35	0x3e85fdf4	0.26170313
36	0x3e1cfdcf	0.15331195
37	0x3e26c82e	0.162873
38	0x3e10cf4a	0.14141575
39	0x3e5364df	0.20643948
40	0x3e693682	0.227747
41	0x3e4b6655	0.19863255
42	0x3e81aad3	0.2532564
43	0x3e704dea	0.23467222
44	0x3e9581a5	0.29200473
45	0x3e83fb95	0.2577788
46	0x3dbf38cb	0.09337004
47	0x3e595898	0.21225202
48	0x3e77ac19	0.24186744
49	0x3e224205	0.15845497
50	0x3e071538	0.13191688
51	0x3ddc95ee	0.10770784
52	0x3e2d3127	0.16913281
53	0x3e44a377	0.19202982
54	0x3e8f88b4	0.28033984
55	0x3e302a20	0.1720357
56	0x3e8d30e5	0.27576366
57	0x3e2e2038	0.17004478
58	0x3e5b7a73	0.2143343
59	0x3e6d9b7e	0.23203847
60	0x3e05ac2e	0.13053963
61	0x3e1a1148	0.15045655
62	0x3e295561	0.16536476
63	0x3e918fb6	0.28429955
64	0x3e6b28d2	0.2296479
65	0x3e45f0ce	0.19330141
66	0x3e2916c7	0.16512595
67	0x3e1fb7ef	0.15597509
68	0x3e8212df	0.25405023
69	0x3e4a67ce	0.19766161
70	0x3dff60f8	0.12469667
71	0x3e4ff376	0.20307717
72	0x3e72fd77	0.23729502
73	0x3e193662	0.14962152
74	0x3e5050cb	0.2034332
75	0x3e6e9ef3	0.23302822
76	0x3e6dd1cb	0.23224561
77	0x3e10bc03	0.14134221
78	0x3e5da1f4	0.21643811
79	0x3e12ca55	0.14334996
80	0x3e8113a4	0.25210297
81	0x3dba1d7e	0.090876564
82	0x3e92cc93	0.28671703
83	0x3e4eb664	0.20186764
84	0x3d61ffee	0.055175714
85	0x3e55be29	0.20873322
86	0x3e2ec70b	0.17068116
87	0x3e5afb90	0.21385026
88	0x3e2dda78	0.1697787
89	0x3e3abf4c	0.18237036
90	0x3e4ef67b	0.20211212
91	0x3e3178c8	0.1733123
92	0x3e20a24f	0.15686916
93	0x3e6669d0	0.22501302
94	0x3e6a6577	0.22890268
95	0x3e159ca2	0.14610532
96	0x3df1481a	0.117813304
97	0x3e6a9ccd	0.22911377
98	0x3e00427b	0.1252536
99	0x3ea489e5	0.32136455
100	0x3e0c0457	0.1367353
101	0x3e664517	0.22487293
102	0x3e5be4de	0.21474025
103	0x3dbad99a	0.091235355
104	0x3e402c09	0.18766798
105	0x3e4f4489	0.20240988
106	0x3e349056	0.17633185
107	0x3dc28314	0.094976574
108	0x3e1cdac0	0.15317822
109	0x3e2c3d52	0.16820267
110	0x3e4a4666	0.19753417
111	0x3e690ac4	0.22758013
112	0x3e70d803	0.23519902
113	0x3e8c8be0	0.27450466
114	0x3da24187	0.079226546
115	0x3de771ea	0.11301024
116	0x3e358c61	0.17729332
117	0x3e322156	0.17395529
118	0x3e944e60	0.28966045
119	0x3de8c2c8	0.113652766
120	0x3e2cf066	0.1688858
121	0x3e54c0bb	0.20776646
122	0x3e4928de	0.19644496
123	0x3e0c1a30	0.13681865
124	0x3df3e2f0	0.11908519
125	0x3e24a0f0	0.16077018
126	0x3e2cbde9	0.1686932
127	0x3e85151a	0.25992662

fc.2.weight f4 [41, 128]
0	0xbdef5a4f	-0.11687147
1	0x3d4eb6be	0.050467245
2	0xbdb35e7f	-0.08758258
3	0xbd78420b	-0.06060986
4	0x3df8b6d1	0.121442445
5	0x3e4d8a89	0.20072378
6	0xbea8c932	-0.32966
7	0x3e254e6e	0.161432
8	0xbe39d314	-0.18146926
9	0x3e494bb0	0.19657779
10	0x3dc9a7df	0.09846472
11	0xbeb228cb	-0.34796748
12	0xbeb297a3	-0.34881315
13	0xbe291a86	-0.16514024
14	0xbe442807	-0.19155894
15	0xbe3efa12	-0.18650082
16	0xbe977e16	-0.29588383
17	0x3db8e9ce	0.0902897
18	0xbe31f2e0	-0.17377806
19	0xbc8cff1e	-0.017211493
20	0x3dabf5ad	0.08396468
21	0x3e0bf434	0.13667375
22	0xbe6ea6ba	-0.23305789
23	0xbe863970	-0.26215696
24	0xbe67c901	-0.2263527
25	0xbe7f8f08	-0.24956906
26	0xbbfbd3f6	-0.00768518
27	0x3e303010	0.17205834
28	0x3dcfbde6	0.10143642
29	0xbec0b2c9	-0.37636402
30	0x3dea1b94	0.11431041
31	0x3db0b9fb	0.08629223
32	0xbe247515	-0.16060288
33	0x3de17876	0.11009304
34	0x3db77255	0.08957354
35	0x3e16cc66	0.1472641
36	0xbea0e6e6	-0.31426162
37	0xbebd56b1	-0.36980203
38	0xbe90d516	-0.28287572
39	0x3e000c91	0.12504794
40	0x3d9fe2ac	0.07806906
41	0xbea66a76	-0.32503098
42	0xbe8acb42	-0.27108198
43	0xbea41012	-0.3204351
44	0xbe5f9ea3	-0.21837859
45	0xbeb038c3	-0.34418306
46	0xbe7a0f32	-0.24419859
47	0xbe829497	-0.2550399
48	0x3e17abbc	0.14811605
49	0xbe9b5208	-0.30336022
50	0xbe50566e	-0.2034547
51	0xbe59c174	-0.21265203
52	0xbe0b1976	-0.13583931
53	0xbe96b6bb	-0.29436287
54	0xbe8ceffb	-0.2752684
55	0x3da0a25e	0.07843469
56	0x3da1af0a	0.07894714
57	0xbe8aa3e6	-0.2707817
58	0xbe8d60b4	-0.2761284
59	0xbebde602	-0.37089545
60	0x3e11b725	0.1423002
61	0xbea6a254	-0.32545722
62	0xbe982bea	-0.29721004
63	0xbe98b4eb	-0.2982553
64	0xbeaadbd1	-0.33370832
65	0xbe94ed95	-0.2908751
66	0xbea267a3	-0.31719694
67	0x3d904eb6	0.07046263
68	0xbcde7b67	-0.027158452
69	0x3e226629	0.15859284
70	0xbe6b2f33	-0.22967224
71	0xbe0ebd87	-0.13939486
72	0x3e576083	0.2103291
73	0xbe4755fd	-0.19466396
74	0xbba1655d	-0.0049254135
75	0xbe97c6a4	-0.29643738
76	0xbc8fb97a	-0.017544497
77	0x3e2626a5	0.16225679
78	0xbeb3fe33	-0.35154876
79	0xbea4a02f	-0.3215346
80	0xbd5a2c6f	-0.05326503
81	0xbe7df524	-0.24800545
82	0xbe03520b	-0.12824266
83	0xbe876c03	-0.26449594
84	0x3da7e5b0	0.08198106
85	0xbe854b46	-0.26033992
86	0x3d836d06	0.06417279
87	0x3d9d4de8	0.07680875
88	0x3e1418dd	0.1446261
89	0x3e212538	0.15736854
90	0xbe8b312d	-0.27185956
91	0xbe90bd6c	-0.28269517
92	0xbe8fd07e	-0.28088754
93	0x3d6ed349	0.058306966
94	0x3d9977aa	0.07493527
95	0xbe7932b2	-0.24335745
96	0x3e59e02b	0.2127692
97	0x3d9d900d	0.07693491
98	0xbe8f53b3	-0.27993545
99	0x3e3491b4	0.17633706
100	0x3e1f16bf	0.1553602
101	0x3e35201e	0.17688033
102	0xbe984ccd	-0.29746094
103	0xbe9da25f	-0.30787942
104	0xbec8ef05	-0.39244857
105	0x3dc4daa5	0.09612016
106	0xbea6f24e	-0.3260674
107	0x3dd2cfa2	0.10293509
108	0x3d9ca5e9	0.07648832
109	0x3e185c23	0.14878897
110	0x3db691a9	0.08914501
111	0xbdf89299	-0.12137336
112	0xbea618ed	-0.32440892
113	0xbe9021ac	-0.2815069
114	0xbe2457c4	-0.16049105
115	0x3dc5172f	0.096235625
116	0x3dff90be	0.12478779
117	0xbeab4b79	-0.3345602
118	0xbe9537be	-0.2914409
119	0xbeb0378f	-0.34417388
120	0x3e23e2b5	0.1600445
121	0x3d74863c	0.05969833
122	0x3e147c5c	0.14500564
123	0x3e11d6bd	0.14242072
124	0x3e407886	0.18795976
125	0x3de9d5bf	0.11417722
126	0xbea5582c	-0.32293832
127	0x3e4a9dee	0.19786808
128	0xbea94f15	-0.33068147
129	0x3e19ecb0	0.15031695
130	0xbe5c9287	-0.21540271
131	0xbe7ee42e	-0.24891731
132	0x3e3f48b1	0.18680073
133	0x3db76191	0.08954156
134	0x3d8e335a	0.06943388
135	0x3e4f2fbf	0.20233057
136	0x3e3319b5	0.17490275
137	0xbe427de7	-0.1899334
138	0xbe9800bd	-0.29688063
139	0xbe5b6840	-0.21426487
140	0xbe8d58ff	-0.2760696
141	0xbe84a14e	-0.25904316
142	0xbe9243f3	-0.28567466
143	0x3e0b867c	0.1362552
144	0xbe9208c9	-0.28522328
145	0xbe516999	-0.20450439
146	0xbe9038f1	-0.28168443
147	0xbed8ec75	-0.42367902
148	0x3e188ac5	0.14896686
149	0xbe477530	-0.19478297
150	0x3e4102cd	0.18848725
151	0x3dda8895	0.10670582
152	0x3e57284a	0.21011463
153	0xbe80e84c	-0.25177228
154	0xbe5c473a	-0.21511546
155	0x3dcf4fb7	0.10122626
156	0xbe5b362e	-0.21407387
157	0x3d84aef0	0.06478679
158	0xbc8e322f	-0.017357914
159	0xbea8c1c5	-0.32960334
160	0xbeb8aa5a	-0.36067468
161	0x3de39af4	0.11113539
162	0xbe8b18de	-0.2716741
163	0xbe947a08	-0.28999352
164	0xbeaf3e37	-0.34227154
165	0xbeac83bb	-0.33694252
166	0xbe84b116	-0.25916356
167	0xbe5f57cd	-0.21810837
168	0xbe80440f	-0.25051925
169	0xbe5219a5	-0.20517595
170	0xbd5bd321	-0.053668145
171	0xbe7128c3	-0.23550706
172	0x3e0a9e0a	0.1353685
173	0xbe9a360b	-0.30119357
174	0x3db2dcae	0.087334976
175	0x3e1d555c	0.15364593
176	0xbdae2f89	-0.0850516
177	0x3e276f06	0.16350946
178	0xbe990127	-0.29883692
179	0xbe88f273	-0.26747474
180	0x3d2d0b7b	0.042247277
181	0xbe5ca481	-0.21547128
182	0xbe99df14	-0.30053008
183	0x3d732fbc	0.059371695
184	0x3dee8d83	0.11648085
185	0x3dd77489	0.10520274
186	0xbe9458ed	-0.28974095
187	0x3dbfd931	0.09367598
188	0xbe892210	-0.267838
189	0x3e172a34	0.14762193
190	0x3e07b2a2	0.13251737
191	0x3c187961	0.009306283
192	0x3e07e7e4	0.13272053
193	0xbe8fb040	-0.28064156
194	0x3df35c13	0.11882796
195	0xbe88f7f6	-0.2675168
196	0xbe933beb	-0.2875665
197	0xbe882275	-0.2658879
198	0x3e292de4	0.16521412
199	0x3e531722	0.20614293
200	0x3e3b2ff2	0.18280008
201	0xbe8523cf	-0.26003882
202	0xbeafa3a9	-0.3430455
203	0x3e3ff7c2	0.18746856
204	0xbe97a380	-0.29616928
205	0xbe4a8307	-0.19776545
206	0x3e2bef2c	0.16790456
207	0x3e00c343	0.12574486
208	0xbe85a971	-0.26105836
209	0xbe872143	-0.26392564
210	0x3daf1bbd	0.085502125
211	0xbe95a698	-0.29228663
212	0x3e050c34	0.12992936
213	0x3dd9b22d	0.106296875
214	0xbe6ce977	-0.23135935
215	0x3dd13924	0.10215977
216	0xbe8a68e3	-0.27033147
217	0xbe9f5fe6	-0.31127852
218	0xbe746508	-0.23866665
219	0x3da8a606	0.082347915
220	0xbe8c03f4	-0.27346766
221	0x3d481a66	0.0488533
222	0xbe4ac417	-0.19801365
223	0xbe611df1	-0.21984078
224	0xbc503b38	-0.012709431
225	0x3e2de3c6	0.1698142
226	0xbdd787a3	-0.105239175
227	0x3e17e735	0.14834292
228	0xbe90d607	-0.2828829
229	0x3e167ede	0.14696833
230	0x3e16370f	0.1466944
231	0xbe3d9c53	-0.18516664
232	0x3deb3863	0.11485364
233	0xbe99a6fa	-0.30010206
234	0xbe8d9044	-0.27649128
235	0xbe529dcc	-0.20568007
236	0x3e435900	0.1907692
237	0x3deff8ab	0.117173515
238	0xbe8c376d	-0.27386037
239	0x3d22b667	0.039724734
240	0x3e22131b	0.158276
241	0xbe9b43f6	-0.30325288
242	0xbe27ac3d	-0.16374297
243	0xbe75862f	-0.23976968
244	0x3daf56d5	0.08561484
245	0x3e3f44eb	0.18678634
246	0x3d19dbe7	0.03756323
247	0x3e2a747d	0.16645999
248	0x3dba2b33	0.09090271
249	0x3de4c6a9	0.11170704
250	0xbe85fdae	-0.26170105
251	0xbe9e4ae3	-0.3091651
252	0xbe48008d	-0.1953146
253	0xbe81cfd3	-0.2535387
254	0xbe8b2491	-0.27176335
255	0xbe7b3bc8	-0.24534523

fc.2.bias f4 [41]
0	0xbd6f48f5	-0.058419187
1	0x3d919297	0.07108038
2	0x3d1c9818	0.038230985
3	0xbdc08afc	-0.09401509
4	0x3dfa6ab3	0.122273825
5	0x3da09696	0.07841222
6	0xbd87769d	-0.066144206
7	0x3d3dba87	0.046320464
8	0xbd3843ec	-0.04498665
9	0xbc6bf344	-0.014401261
10	0x3cb6efae	0.022331085
11	0xbd215baa	-0.03939406
12	0xbd6f428b	-0.05841307
13	0x3d92434f	0.07141744
14	0x3cec2069	0.028824048
15	0xbcd0b898	-0.025478646
16	0xbd2f5631	-0.042806808
17	0x3d497d65	0.04919185
18	0x3dd59955	0.104296364
19	0x3ab5dcc5	0.0013874999
20	0x3d955978	0.072924554
21	0xbb6f7506	-0.0036538257
22	0xbd7bc5a7	-0.061467793
23	0x3dcc08d2	0.0996262
24	0xbda341cb	-0.079715334
25	0xbd633e44	-0.055479303
26	0xbdef7999	-0.11693115
27	0x3d54f7ea	0.05199424
28	0xbd1ab622	-0.03777135
29	0x3d48ab2e	0.048991375
30	0xbcc42311	-0.023942502
31	0x3c5ddafa	0.013540978
32	0x3caf1a8d	0.021374965
33	0xbc97ac0e	-0.01851466
34	0xbc05b1dd	-0.008160082
35	0xbc7936c7	-0.015210814
36	0xbbbe02cb	-0.005798673
37	0x3d1d7e6f	0.038450655
38	0x3ce742e4	0.028230138
39	0x3d932161	0.07184101
40	0x3d3023c9	0.043002877
